…
hrough the pyplot interface (`matplotlib.pyplot.figure`) are retained until explicitly closed and may consume too much memory. (To control this warning, see the rcParam `figure.max_open_warning`). Consider using `matplotlib.pyplot.close()`.
  fig, ax = plt.subplots(1, 6, figsize=(20,20))
Device: cuda
==========================================================================================
Layer (type:depth-idx)                   Output Shape              Param #
==========================================================================================
DataParallel                             [1, 5, 256, 256]          --
├─Network: 1-1                           [1, 5, 256, 256]          29,805,621
├─Network: 1-2                           --                        --
│    └─Sequential: 2-1                   [1, 64, 252, 252]         38,848
│    └─Sequential: 2-2                   --                        --
│    │    └─Conv2d: 3-1                  [1, 64, 254, 254]         1,792
│    │    └─ReLU: 3-2                    [1, 64, 254, 254]         --
│    │    └─Dropout2d: 3-3               [1, 64, 254, 254]         --
│    │    └─Conv2d: 3-4                  [1, 64, 252, 252]         36,928
│    │    └─ReLU: 3-5                    [1, 64, 252, 252]         --
│    │    └─BatchNorm2d: 3-6             [1, 64, 252, 252]         128
│    └─MaxPool2d: 2-3                    [1, 64, 126, 126]         --
│    └─Sequential: 2-4                   [1, 128, 122, 122]        221,696
│    └─Sequential: 2-5                   --                        --
│    │    └─Conv2d: 3-7                  [1, 128, 124, 124]        73,856
│    │    └─ReLU: 3-8                    [1, 128, 124, 124]        --
│    │    └─Dropout2d: 3-9               [1, 128, 124, 124]        --
│    │    └─Conv2d: 3-10                 [1, 128, 122, 122]        147,584
│    │    └─ReLU: 3-11                   [1, 128, 122, 122]        --
│    │    └─BatchNorm2d: 3-12            [1, 128, 122, 122]        256
│    └─MaxPool2d: 2-6                    [1, 128, 61, 61]          --
│    └─Sequential: 2-7                   [1, 256, 57, 57]          885,760
│    └─Sequential: 2-8                   --                        --
│    │    └─Conv2d: 3-13                 [1, 256, 59, 59]          295,168
│    │    └─ReLU: 3-14                   [1, 256, 59, 59]          --
│    │    └─Dropout2d: 3-15              [1, 256, 59, 59]          --
│    │    └─Conv2d: 3-16                 [1, 256, 57, 57]          590,080
│    │    └─ReLU: 3-17                   [1, 256, 57, 57]          --
│    │    └─BatchNorm2d: 3-18            [1, 256, 57, 57]          512
│    └─MaxPool2d: 2-9                    [1, 256, 28, 28]          --
│    └─Sequential: 2-10                  [1, 512, 24, 24]          3,540,992
│    └─Sequential: 2-11                  --                        --
│    │    └─Conv2d: 3-19                 [1, 512, 26, 26]          1,180,160
│    │    └─ReLU: 3-20                   [1, 512, 26, 26]          --
│    │    └─Dropout2d: 3-21              [1, 512, 26, 26]          --
│    │    └─Conv2d: 3-22                 [1, 512, 24, 24]          2,359,808
│    │    └─ReLU: 3-23                   [1, 512, 24, 24]          --
│    │    └─BatchNorm2d: 3-24            [1, 512, 24, 24]          1,024
│    └─MaxPool2d: 2-12                   [1, 512, 12, 12]          --
│    └─Sequential: 2-13                  [1, 1024, 8, 8]           14,159,872
│    └─Sequential: 2-14                  --                        --
│    │    └─Conv2d: 3-25                 [1, 1024, 10, 10]         4,719,616
│    │    └─ReLU: 3-26                   [1, 1024, 10, 10]         --
│    │    └─Dropout2d: 3-27              [1, 1024, 10, 10]         --
│    │    └─Conv2d: 3-28                 [1, 1024, 8, 8]           9,438,208
│    │    └─ReLU: 3-29                   [1, 1024, 8, 8]           --
│    │    └─BatchNorm2d: 3-30            [1, 1024, 8, 8]           2,048
│    └─Dropout2d: 2-15                   [1, 1024, 8, 8]           --
│    └─Sequential: 2-16                  [1, 512, 12, 12]          7,079,936
│    └─Sequential: 2-17                  --                        --
│    │    └─ConvTranspose2d: 3-31        [1, 512, 10, 10]          4,719,104
│    │    └─ReLU: 3-32                   [1, 512, 10, 10]          --
│    │    └─Dropout2d: 3-33              [1, 512, 10, 10]          --
│    │    └─ConvTranspose2d: 3-34        [1, 512, 12, 12]          2,359,808
│    │    └─ReLU: 3-35                   [1, 512, 12, 12]          --
│    │    └─BatchNorm2d: 3-36            [1, 512, 12, 12]          1,024
│    └─MaxUnpool2d: 2-18                 [1, 512, 24, 24]          --
│    └─Sequential: 2-19                  [1, 256, 28, 28]          2,950,144
│    └─Sequential: 2-20                  --                        --
│    │    └─ConvTranspose2d: 3-37        [1, 256, 26, 26]          2,359,552
│    │    └─ReLU: 3-38                   [1, 256, 26, 26]          --
│    │    └─Dropout2d: 3-39              [1, 256, 26, 26]          --
│    │    └─ConvTranspose2d: 3-40        [1, 256, 28, 28]          590,080
│    │    └─ReLU: 3-41                   [1, 256, 28, 28]          --
│    │    └─BatchNorm2d: 3-42            [1, 256, 28, 28]          512
│    └─MaxUnpool2d: 2-21                 [1, 256, 57, 57]          --
│    └─Sequential: 2-22                  [1, 128, 61, 61]          737,792
│    └─Sequential: 2-23                  --                        --
│    │    └─ConvTranspose2d: 3-43        [1, 128, 59, 59]          589,952
│    │    └─ReLU: 3-44                   [1, 128, 59, 59]          --
│    │    └─Dropout2d: 3-45              [1, 128, 59, 59]          --
│    │    └─ConvTranspose2d: 3-46        [1, 128, 61, 61]          147,584
│    │    └─ReLU: 3-47                   [1, 128, 61, 61]          --
│    │    └─BatchNorm2d: 3-48            [1, 128, 61, 61]          256
│    └─MaxUnpool2d: 2-24                 [1, 128, 122, 122]        --
│    └─Sequential: 2-25                  [1, 64, 126, 126]         184,576
│    └─Sequential: 2-26                  --                        --
│    │    └─ConvTranspose2d: 3-49        [1, 64, 124, 124]         147,520
│    │    └─ReLU: 3-50                   [1, 64, 124, 124]         --
│    │    └─Dropout2d: 3-51              [1, 64, 124, 124]         --
│    │    └─ConvTranspose2d: 3-52        [1, 64, 126, 126]         36,928
│    │    └─ReLU: 3-53                   [1, 64, 126, 126]         --
│    │    └─BatchNorm2d: 3-54            [1, 64, 126, 126]         128
│    └─MaxUnpool2d: 2-27                 [1, 64, 252, 252]         --
│    └─Sequential: 2-28                  [1, 5, 256, 256]          6,005
│    └─Sequential: 2-29                  --                        --
│    │    └─ConvTranspose2d: 3-55        [1, 5, 254, 254]          5,765
│    │    └─ReLU: 3-56                   [1, 5, 254, 254]          --
│    │    └─Dropout2d: 3-57              [1, 5, 254, 254]          --
│    │    └─ConvTranspose2d: 3-58        [1, 5, 256, 256]          230
│    │    └─ReLU: 3-59                   [1, 5, 256, 256]          --
│    │    └─BatchNorm2d: 3-60            [1, 5, 256, 256]          10
│    └─Softmax: 2-30                     [1, 5, 256, 256]          --
==========================================================================================
Total params: 89,416,863
Trainable params: 89,416,863
Non-trainable params: 0
Total mult-adds (G): 20.68
==========================================================================================
Input size (MB): 0.79
Forward/backward pass size (MB): 223.40
Params size (MB): 119.22
Estimated Total Size (MB): 343.41
==========================================================================================
==========================================================================================
Layer (type:depth-idx)                   Output Shape              Param #
==========================================================================================
DataParallel                             [1, 5, 256, 256]          --
├─Network: 1-1                           [1, 5, 256, 256]          29,805,621
├─Network: 1-2                           --                        --
│    └─Sequential: 2-1                   [1, 64, 252, 252]         38,848
│    └─Sequential: 2-2                   --                        --
│    │    └─Conv2d: 3-1                  [1, 64, 254, 254]         1,792
│    │    └─ReLU: 3-2                    [1, 64, 254, 254]         --
│    │    └─Dropout2d: 3-3               [1, 64, 254, 254]         --
│    │    └─Conv2d: 3-4                  [1, 64, 252, 252]         36,928
│    │    └─ReLU: 3-5                    [1, 64, 252, 252]         --
│    │    └─BatchNorm2d: 3-6             [1, 64, 252, 252]         128
│    └─MaxPool2d: 2-3                    [1, 64, 126, 126]         --
│    └─Sequential: 2-4                   [1, 128, 122, 122]        221,696
│    └─Sequential: 2-5                   --                        --
│    │    └─Conv2d: 3-7                  [1, 128, 124, 124]        73,856
│    │    └─ReLU: 3-8                    [1, 128, 124, 124]        --
│    │    └─Dropout2d: 3-9               [1, 128, 124, 124]        --
│    │    └─Conv2d: 3-10                 [1, 128, 122, 122]        147,584
│    │    └─ReLU: 3-11                   [1, 128, 122, 122]        --
│    │    └─BatchNorm2d: 3-12            [1, 128, 122, 122]        256
│    └─MaxPool2d: 2-6                    [1, 128, 61, 61]          --
│    └─Sequential: 2-7                   [1, 256, 57, 57]          885,760
│    └─Sequential: 2-8                   --                        --
│    │    └─Conv2d: 3-13                 [1, 256, 59, 59]          295,168
│    │    └─ReLU: 3-14                   [1, 256, 59, 59]          --
│    │    └─Dropout2d: 3-15              [1, 256, 59, 59]          --
│    │    └─Conv2d: 3-16                 [1, 256, 57, 57]          590,080
│    │    └─ReLU: 3-17                   [1, 256, 57, 57]          --
│    │    └─BatchNorm2d: 3-18            [1, 256, 57, 57]          512
│    └─MaxPool2d: 2-9                    [1, 256, 28, 28]          --
│    └─Sequential: 2-10                  [1, 512, 24, 24]          3,540,992
│    └─Sequential: 2-11                  --                        --
│    │    └─Conv2d: 3-19                 [1, 512, 26, 26]          1,180,160
│    │    └─ReLU: 3-20                   [1, 512, 26, 26]          --
│    │    └─Dropout2d: 3-21              [1, 512, 26, 26]          --
│    │    └─Conv2d: 3-22                 [1, 512, 24, 24]          2,359,808
│    │    └─ReLU: 3-23                   [1, 512, 24, 24]          --
│    │    └─BatchNorm2d: 3-24            [1, 512, 24, 24]          1,024
│    └─MaxPool2d: 2-12                   [1, 512, 12, 12]          --
│    └─Sequential: 2-13                  [1, 1024, 8, 8]           14,159,872
│    └─Sequential: 2-14                  --                        --
│    │    └─Conv2d: 3-25                 [1, 1024, 10, 10]         4,719,616
│    │    └─ReLU: 3-26                   [1, 1024, 10, 10]         --
│    │    └─Dropout2d: 3-27              [1, 1024, 10, 10]         --
│    │    └─Conv2d: 3-28                 [1, 1024, 8, 8]           9,438,208
│    │    └─ReLU: 3-29                   [1, 1024, 8, 8]           --
│    │    └─BatchNorm2d: 3-30            [1, 1024, 8, 8]           2,048
│    └─Dropout2d: 2-15                   [1, 1024, 8, 8]           --
│    └─Sequential: 2-16                  [1, 512, 12, 12]          7,079,936
│    └─Sequential: 2-17                  --                        --
│    │    └─ConvTranspose2d: 3-31        [1, 512, 10, 10]          4,719,104
│    │    └─ReLU: 3-32                   [1, 512, 10, 10]          --
│    │    └─Dropout2d: 3-33              [1, 512, 10, 10]          --
│    │    └─ConvTranspose2d: 3-34        [1, 512, 12, 12]          2,359,808
│    │    └─ReLU: 3-35                   [1, 512, 12, 12]          --
│    │    └─BatchNorm2d: 3-36            [1, 512, 12, 12]          1,024
│    └─MaxUnpool2d: 2-18                 [1, 512, 24, 24]          --
│    └─Sequential: 2-19                  [1, 256, 28, 28]          2,950,144
│    └─Sequential: 2-20                  --                        --
│    │    └─ConvTranspose2d: 3-37        [1, 256, 26, 26]          2,359,552
│    │    └─ReLU: 3-38                   [1, 256, 26, 26]          --
│    │    └─Dropout2d: 3-39              [1, 256, 26, 26]          --
│    │    └─ConvTranspose2d: 3-40        [1, 256, 28, 28]          590,080
│    │    └─ReLU: 3-41                   [1, 256, 28, 28]          --
│    │    └─BatchNorm2d: 3-42            [1, 256, 28, 28]          512
│    └─MaxUnpool2d: 2-21                 [1, 256, 57, 57]          --
│    └─Sequential: 2-22                  [1, 128, 61, 61]          737,792
│    └─Sequential: 2-23                  --                        --
│    │    └─ConvTranspose2d: 3-43        [1, 128, 59, 59]          589,952
│    │    └─ReLU: 3-44                   [1, 128, 59, 59]          --
│    │    └─Dropout2d: 3-45              [1, 128, 59, 59]          --
│    │    └─ConvTranspose2d: 3-46        [1, 128, 61, 61]          147,584
│    │    └─ReLU: 3-47                   [1, 128, 61, 61]          --
│    │    └─BatchNorm2d: 3-48            [1, 128, 61, 61]          256
│    └─MaxUnpool2d: 2-24                 [1, 128, 122, 122]        --
│    └─Sequential: 2-25                  [1, 64, 126, 126]         184,576
│    └─Sequential: 2-26                  --                        --
│    │    └─ConvTranspose2d: 3-49        [1, 64, 124, 124]         147,520
│    │    └─ReLU: 3-50                   [1, 64, 124, 124]         --
│    │    └─Dropout2d: 3-51              [1, 64, 124, 124]         --
│    │    └─ConvTranspose2d: 3-52        [1, 64, 126, 126]         36,928
│    │    └─ReLU: 3-53                   [1, 64, 126, 126]         --
│    │    └─BatchNorm2d: 3-54            [1, 64, 126, 126]         128
│    └─MaxUnpool2d: 2-27                 [1, 64, 252, 252]         --
│    └─Sequential: 2-28                  [1, 5, 256, 256]          6,005
│    └─Sequential: 2-29                  --                        --
│    │    └─ConvTranspose2d: 3-55        [1, 5, 254, 254]          5,765
│    │    └─ReLU: 3-56                   [1, 5, 254, 254]          --
│    │    └─Dropout2d: 3-57              [1, 5, 254, 254]          --
│    │    └─ConvTranspose2d: 3-58        [1, 5, 256, 256]          230
│    │    └─ReLU: 3-59                   [1, 5, 256, 256]          --
│    │    └─BatchNorm2d: 3-60            [1, 5, 256, 256]          10
│    └─Softmax: 2-30                     [1, 5, 256, 256]          --
==========================================================================================
Total params: 89,416,863
Trainable params: 89,416,863
Non-trainable params: 0
Total mult-adds (G): 20.68
==========================================================================================
Input size (MB): 0.79
Forward/backward pass size (MB): 223.40
Params size (MB): 119.22
Estimated Total Size (MB): 343.41
…
