Device: cuda
==========================================================================================
Layer (type:depth-idx)                   Output Shape              Param #
==========================================================================================
Network                                  [1, 5, 256, 256]          --
├─Sequential: 1-1                        [1, 64, 252, 252]         --
│    └─Conv2d: 2-1                       [1, 64, 254, 254]         1,792
│    └─ReLU: 2-2                         [1, 64, 254, 254]         --
│    └─Conv2d: 2-3                       [1, 64, 252, 252]         36,928
│    └─ReLU: 2-4                         [1, 64, 252, 252]         --
│    └─BatchNorm2d: 2-5                  [1, 64, 252, 252]         128
├─MaxPool2d: 1-2                         [1, 64, 126, 126]         --
├─Sequential: 1-3                        [1, 128, 122, 122]        --
│    └─Conv2d: 2-6                       [1, 128, 124, 124]        73,856
│    └─ReLU: 2-7                         [1, 128, 124, 124]        --
│    └─Conv2d: 2-8                       [1, 128, 122, 122]        147,584
│    └─ReLU: 2-9                         [1, 128, 122, 122]        --
│    └─BatchNorm2d: 2-10                 [1, 128, 122, 122]        256
├─MaxPool2d: 1-4                         [1, 128, 61, 61]          --
├─Sequential: 1-5                        [1, 256, 57, 57]          --
│    └─Conv2d: 2-11                      [1, 256, 59, 59]          295,168
│    └─ReLU: 2-12                        [1, 256, 59, 59]          --
│    └─Conv2d: 2-13                      [1, 256, 57, 57]          590,080
│    └─ReLU: 2-14                        [1, 256, 57, 57]          --
│    └─BatchNorm2d: 2-15                 [1, 256, 57, 57]          512
├─MaxPool2d: 1-6                         [1, 256, 28, 28]          --
├─Sequential: 1-7                        [1, 512, 24, 24]          --
│    └─Conv2d: 2-16                      [1, 512, 26, 26]          1,180,160
│    └─ReLU: 2-17                        [1, 512, 26, 26]          --
│    └─Conv2d: 2-18                      [1, 512, 24, 24]          2,359,808
│    └─ReLU: 2-19                        [1, 512, 24, 24]          --
│    └─BatchNorm2d: 2-20                 [1, 512, 24, 24]          1,024
├─MaxPool2d: 1-8                         [1, 512, 12, 12]          --
├─Sequential: 1-9                        [1, 1024, 8, 8]           --
│    └─Conv2d: 2-21                      [1, 1024, 10, 10]         4,719,616
│    └─ReLU: 2-22                        [1, 1024, 10, 10]         --
│    └─Conv2d: 2-23                      [1, 1024, 8, 8]           9,438,208
│    └─ReLU: 2-24                        [1, 1024, 8, 8]           --
│    └─BatchNorm2d: 2-25                 [1, 1024, 8, 8]           2,048
├─Dropout2d: 1-10                        [1, 1024, 8, 8]           --
├─Sequential: 1-11                       [1, 512, 12, 12]          --
│    └─ConvTranspose2d: 2-26             [1, 512, 10, 10]          4,719,104
│    └─ReLU: 2-27                        [1, 512, 10, 10]          --
│    └─ConvTranspose2d: 2-28             [1, 512, 12, 12]          2,359,808
│    └─ReLU: 2-29                        [1, 512, 12, 12]          --
│    └─BatchNorm2d: 2-30                 [1, 512, 12, 12]          1,024
├─MaxUnpool2d: 1-12                      [1, 512, 24, 24]          --
├─Sequential: 1-13                       [1, 256, 28, 28]          --
│    └─ConvTranspose2d: 2-31             [1, 256, 26, 26]          2,359,552
│    └─ReLU: 2-32                        [1, 256, 26, 26]          --
│    └─ConvTranspose2d: 2-33             [1, 256, 28, 28]          590,080
│    └─ReLU: 2-34                        [1, 256, 28, 28]          --
│    └─BatchNorm2d: 2-35                 [1, 256, 28, 28]          512
├─MaxUnpool2d: 1-14                      [1, 256, 57, 57]          --
├─Sequential: 1-15                       [1, 128, 61, 61]          --
│    └─ConvTranspose2d: 2-36             [1, 128, 59, 59]          589,952
│    └─ReLU: 2-37                        [1, 128, 59, 59]          --
│    └─ConvTranspose2d: 2-38             [1, 128, 61, 61]          147,584
│    └─ReLU: 2-39                        [1, 128, 61, 61]          --
│    └─BatchNorm2d: 2-40                 [1, 128, 61, 61]          256
├─MaxUnpool2d: 1-16                      [1, 128, 122, 122]        --
├─Sequential: 1-17                       [1, 64, 126, 126]         --
│    └─ConvTranspose2d: 2-41             [1, 64, 124, 124]         147,520
│    └─ReLU: 2-42                        [1, 64, 124, 124]         --
│    └─ConvTranspose2d: 2-43             [1, 64, 126, 126]         36,928
│    └─ReLU: 2-44                        [1, 64, 126, 126]         --
│    └─BatchNorm2d: 2-45                 [1, 64, 126, 126]         128
├─MaxUnpool2d: 1-18                      [1, 64, 252, 252]         --
├─Sequential: 1-19                       [1, 5, 256, 256]          --
│    └─ConvTranspose2d: 2-46             [1, 5, 254, 254]          5,765
│    └─ReLU: 2-47                        [1, 5, 254, 254]          --
│    └─ConvTranspose2d: 2-48             [1, 5, 256, 256]          230
│    └─ReLU: 2-49                        [1, 5, 256, 256]          --
│    └─BatchNorm2d: 2-50                 [1, 5, 256, 256]          10
├─Softmax: 1-20                          [1, 5, 256, 256]          --
==========================================================================================
Total params: 29,805,621
Trainable params: 29,805,621
Non-trainable params: 0
Total mult-adds (G): 20.68
==========================================================================================
Input size (MB): 0.79
Forward/backward pass size (MB): 223.40
Params size (MB): 119.22
Estimated Total Size (MB): 343.41
==========================================================================================
==========================================================================================
Layer (type:depth-idx)                   Output Shape              Param #
==========================================================================================
Network                                  [1, 5, 256, 256]          --
├─Sequential: 1-1                        [1, 64, 252, 252]         --
│    └─Conv2d: 2-1                       [1, 64, 254, 254]         1,792
│    └─ReLU: 2-2                         [1, 64, 254, 254]         --
│    └─Conv2d: 2-3                       [1, 64, 252, 252]         36,928
│    └─ReLU: 2-4                         [1, 64, 252, 252]         --
│    └─BatchNorm2d: 2-5                  [1, 64, 252, 252]         128
├─MaxPool2d: 1-2                         [1, 64, 126, 126]         --
├─Sequential: 1-3                        [1, 128, 122, 122]        --
│    └─Conv2d: 2-6                       [1, 128, 124, 124]        73,856
│    └─ReLU: 2-7                         [1, 128, 124, 124]        --
│    └─Conv2d: 2-8                       [1, 128, 122, 122]        147,584
│    └─ReLU: 2-9                         [1, 128, 122, 122]        --
│    └─BatchNorm2d: 2-10                 [1, 128, 122, 122]        256
├─MaxPool2d: 1-4                         [1, 128, 61, 61]          --
├─Sequential: 1-5                        [1, 256, 57, 57]          --
│    └─Conv2d: 2-11                      [1, 256, 59, 59]          295,168
│    └─ReLU: 2-12                        [1, 256, 59, 59]          --
│    └─Conv2d: 2-13                      [1, 256, 57, 57]          590,080
│    └─ReLU: 2-14                        [1, 256, 57, 57]          --
│    └─BatchNorm2d: 2-15                 [1, 256, 57, 57]          512
├─MaxPool2d: 1-6                         [1, 256, 28, 28]          --
├─Sequential: 1-7                        [1, 512, 24, 24]          --
│    └─Conv2d: 2-16                      [1, 512, 26, 26]          1,180,160
│    └─ReLU: 2-17                        [1, 512, 26, 26]          --
│    └─Conv2d: 2-18                      [1, 512, 24, 24]          2,359,808
│    └─ReLU: 2-19                        [1, 512, 24, 24]          --
│    └─BatchNorm2d: 2-20                 [1, 512, 24, 24]          1,024
├─MaxPool2d: 1-8                         [1, 512, 12, 12]          --
├─Sequential: 1-9                        [1, 1024, 8, 8]           --
│    └─Conv2d: 2-21                      [1, 1024, 10, 10]         4,719,616
│    └─ReLU: 2-22                        [1, 1024, 10, 10]         --
│    └─Conv2d: 2-23                      [1, 1024, 8, 8]           9,438,208
│    └─ReLU: 2-24                        [1, 1024, 8, 8]           --
│    └─BatchNorm2d: 2-25                 [1, 1024, 8, 8]           2,048
├─Dropout2d: 1-10                        [1, 1024, 8, 8]           --
├─Sequential: 1-11                       [1, 512, 12, 12]          --
│    └─ConvTranspose2d: 2-26             [1, 512, 10, 10]          4,719,104
│    └─ReLU: 2-27                        [1, 512, 10, 10]          --
│    └─ConvTranspose2d: 2-28             [1, 512, 12, 12]          2,359,808
│    └─ReLU: 2-29                        [1, 512, 12, 12]          --
│    └─BatchNorm2d: 2-30                 [1, 512, 12, 12]          1,024
├─MaxUnpool2d: 1-12                      [1, 512, 24, 24]          --
├─Sequential: 1-13                       [1, 256, 28, 28]          --
│    └─ConvTranspose2d: 2-31             [1, 256, 26, 26]          2,359,552
│    └─ReLU: 2-32                        [1, 256, 26, 26]          --
│    └─ConvTranspose2d: 2-33             [1, 256, 28, 28]          590,080
│    └─ReLU: 2-34                        [1, 256, 28, 28]          --
│    └─BatchNorm2d: 2-35                 [1, 256, 28, 28]          512
├─MaxUnpool2d: 1-14                      [1, 256, 57, 57]          --
├─Sequential: 1-15                       [1, 128, 61, 61]          --
│    └─ConvTranspose2d: 2-36             [1, 128, 59, 59]          589,952
│    └─ReLU: 2-37                        [1, 128, 59, 59]          --
│    └─ConvTranspose2d: 2-38             [1, 128, 61, 61]          147,584
│    └─ReLU: 2-39                        [1, 128, 61, 61]          --
│    └─BatchNorm2d: 2-40                 [1, 128, 61, 61]          256
├─MaxUnpool2d: 1-16                      [1, 128, 122, 122]        --
├─Sequential: 1-17                       [1, 64, 126, 126]         --
│    └─ConvTranspose2d: 2-41             [1, 64, 124, 124]         147,520
│    └─ReLU: 2-42                        [1, 64, 124, 124]         --
│    └─ConvTranspose2d: 2-43             [1, 64, 126, 126]         36,928
│    └─ReLU: 2-44                        [1, 64, 126, 126]         --
│    └─BatchNorm2d: 2-45                 [1, 64, 126, 126]         128
├─MaxUnpool2d: 1-18                      [1, 64, 252, 252]         --
├─Sequential: 1-19                       [1, 5, 256, 256]          --
│    └─ConvTranspose2d: 2-46             [1, 5, 254, 254]          5,765
│    └─ReLU: 2-47                        [1, 5, 254, 254]          --
│    └─ConvTranspose2d: 2-48             [1, 5, 256, 256]          230
│    └─ReLU: 2-49                        [1, 5, 256, 256]          --
│    └─BatchNorm2d: 2-50                 [1, 5, 256, 256]          10
├─Softmax: 1-20                          [1, 5, 256, 256]          --
==========================================================================================
Total params: 29,805,621
Trainable params: 29,805,621
Non-trainable params: 0
Total mult-adds (G): 20.68
==========================================================================================
Input size (MB): 0.79
Forward/backward pass size (MB): 223.40
Params size (MB): 119.22
Estimated Total Size (MB): 343.41
…
